…
 INFO: 02_transfer_learning_even_odd]: 
********************
[2021-11-21 17:17:18,207: INFO: 02_transfer_learning_even_odd]: >>>>> stage transfer learning started <<<<<
[2021-11-21 17:17:18,208: INFO: common]: yaml file: configs/config.yaml loaded successfully
[2021-11-21 17:17:19,037: INFO: 02_transfer_learning_even_odd]: loaded base model summary: 
Model: "sequential"
_________________________________________________________________
 Layer (type)                Output Shape              Param #   
=================================================================
 inputlayer (Flatten)        (None, 784)               0         
                                                                 
 hiddenlayer1 (Dense)        (None, 300)               235500    
                                                                 
 leaky_re_lu (LeakyReLU)     (None, 300)               0         
                                                                 
 hiddenlayer2 (Dense)        (None, 100)               30100     
                                                                 
 leaky_re_lu_1 (LeakyReLU)   (None, 100)               0         
                                                                 
 outputlayer (Dense)         (None, 10)                1010      
                                                                 
=================================================================
Total params: 266,610
Trainable params: 266,610
Non-trainable params: 0
_________________________________________________________________

[2021-11-21 17:17:19,062: INFO: 02_transfer_learning_even_odd]: transfer learning model summary: 
Model: "sequential"
_________________________________________________________________
 Layer (type)                Output Shape              Param #   
=================================================================
 inputlayer (Flatten)        (None, 784)               0         
                                                                 
 hiddenlayer1 (Dense)        (None, 300)               235500    
                                                                 
 leaky_re_lu (LeakyReLU)     (None, 300)               0         
                                                                 
 hiddenlayer2 (Dense)        (None, 100)               30100     
                                                                 
 leaky_re_lu_1 (LeakyReLU)   (None, 100)               0         
                                                                 
 output_layer (Dense)        (None, 2)                 202       
                                                                 
=================================================================
Total params: 265,802
Trainable params: 202
Non-trainable params: 265,600
_________________________________________________________________

[2021-11-21 17:17:34,341: INFO: 02_transfer_learning_even_odd]: Training the model took: 15.28 secs
[2021-11-21 17:17:34,355: INFO: 02_transfer_learning_even_odd]: base model is saved  at artifacts/models/even_odd_model.h5
…
[2021-11-21 17:19:09,753: INFO: 01_base_model_creation]: 
********************
[2021-11-21 17:19:09,754: INFO: 01_base_model_creation]: >>>>> stage creating base model started <<<<<
[2021-11-21 17:19:09,755: INFO: common]: yaml file: configs/config.yaml loaded successfully
[2021-11-21 17:19:10,500: INFO: 01_base_model_creation]: creating base model summary: 
Model: "sequential"
_________________________________________________________________
 Layer (type)                Output Shape              Param #   
=================================================================
 inputlayer (Flatten)        (None, 784)               0         
                                                                 
 hiddenlayer1 (Dense)        (None, 300)               235500    
                                                                 
 leaky_re_lu (LeakyReLU)     (None, 300)               0         
                                                                 
 hiddenlayer2 (Dense)        (None, 100)               30100     
                                                                 
 leaky_re_lu_1 (LeakyReLU)   (None, 100)               0         
                                                                 
 outputlayer (Dense)         (None, 10)                1010      
                                                                 
=================================================================
Total params: 266,610
Trainable params: 266,610
Non-trainable params: 0
_________________________________________________________________

[2021-11-21 17:19:35,381: INFO: 01_base_model_creation]: Training the base model took: 24.88 secs
[2021-11-21 17:19:35,382: INFO: common]: created directory at: artifacts/models
…
[2021-11-21 17:20:26,930: INFO: 01.01_base_model_creation_bin]: 
********************
[2021-11-21 17:20:26,930: INFO: 01.01_base_model_creation_bin]: >>>>> stage creating binary model from scratch started <<<<<
[2021-11-21 17:20:26,931: INFO: common]: yaml file: configs/config.yaml loaded successfully
[2021-11-21 17:20:27,743: INFO: 01.01_base_model_creation_bin]: bin_scratch_model summary: 
Model: "sequential"
_________________________________________________________________
 Layer (type)                Output Shape              Param #   
=================================================================
 inputlayer (Flatten)        (None, 784)               0         
                                                                 
 hiddenlayer1 (Dense)        (None, 300)               235500    
                                                                 
 leaky_re_lu (LeakyReLU)     (None, 300)               0         
                                                                 
 hiddenlayer2 (Dense)        (None, 100)               30100     
                                                                 
 leaky_re_lu_1 (LeakyReLU)   (None, 100)               0         
                                                                 
 outputlayer (Dense)         (None, 2)                 202       
                                                                 
=================================================================
Total params: 265,802
Trainable params: 265,802
Non-trainable params: 0
_________________________________________________________________

[2021-11-21 17:20:49,006: INFO: 01.01_base_model_creation_bin]: Training the odd even model from scratch took: 21.26 secs
…
[2021-11-21 17:32:10,788: INFO: 01_base_model_creation]: 
********************
[2021-11-21 17:32:10,788: INFO: 01_base_model_creation]: >>>>> stage creating base model started <<<<<
[2021-11-21 17:32:10,790: INFO: common]: yaml file: configs/config.yaml loaded successfully
[2021-11-21 17:32:11,506: INFO: 01_base_model_creation]: creating base model summary: 
Model: "sequential"
_________________________________________________________________
 Layer (type)                Output Shape              Param #   
=================================================================
 inputlayer (Flatten)        (None, 784)               0         
                                                                 
 hiddenlayer1 (Dense)        (None, 300)               235500    
                                                                 
 leaky_re_lu (LeakyReLU)     (None, 300)               0         
                                                                 
 hiddenlayer2 (Dense)        (None, 100)               30100     
                                                                 
 leaky_re_lu_1 (LeakyReLU)   (None, 100)               0         
                                                                 
 outputlayer (Dense)         (None, 1)                 101       
                                                                 
=================================================================
Total params: 265,701
Trainable params: 265,701
Non-trainable params: 0
_________________________________________________________________

[2021-11-21 17:33:03,635: INFO: 02_transfer_learning_even_odd]: 
********************
[2021-11-21 17:33:03,635: INFO: 02_transfer_learning_even_odd]: >>>>> stage transfer learning started <<<<<
…
